models/leaf_detection_model (1).tflite (tflite, 8684 bytes, 5 tensors)

arith.constant f4 [16]
000000 2c 2d e4 3d 9a 50 76 bd 08 01 1d 3e e0 40 1c 3e
       0.11141428 -0.06013546 0.15332425 0.15259123
000010 db 7c fc 3d 8a 2d 49 3e c4 b5 7f bd bb e3 07 3e
       0.12328502 0.19646278 -0.062429205 0.13270466
000020 25 1f 0c 3e ff d9 0f 3e 2d 23 11 3e 13 49 1a 3e
       0.13683756 0.14048003 0.14173575 0.15066938
000030 81 97 a7 bd 83 9a 72 bd 6c 51 8b bd 91 2f 22 3e
       -0.08183194 -0.059229385 -0.06802639 0.15838458

arith.constant1 f4 [16, 3, 3, 8]
000000 e9 6e e7 3d 54 fb 29 3e d3 fa 91 3e 3e a7 8d bc
       0.11300451 0.1659978 0.28511676 -0.017291661
000010 a0 7d a5 3e 67 81 73 3d 93 12 9c bd 07 f5 42 be
       0.32322407 0.05944958 -0.0762073 -0.19038783
000020 08 e8 b0 bd a1 a7 14 3e c5 c7 91 3d 9f bd f9 bd
       -0.086380064 0.1451707 0.07118181 -0.121943705
000030 b9 4c 5c 3e 48 a3 fe 3c c5 aa 61 3d e5 af c6 bd
       0.21513642 0.031083718 0.0550945 -0.09701518
000040 59 cd bb bc 31 1d 4c 3e 92 1a f3 3d 78 f5 09 3d
       -0.022925066 0.1993301 0.11870302 0.033681363
000050 8d 11 58 3e 37 5b 2e 3d 4e a4 c4 bc d3 a3 01 3d
       0.21100445 0.042567458 -0.024004128 0.031650376
000060 ab 12 17 bb 99 9a a8 bd 0a 88 76 3e f8 f4 e1 3d
       -0.0023051898 -0.08232612 0.24075332 0.11033052
000070 ab 21 c8 3e 9c c3 79 3e 16 e6 c9 3c 75 ed 9e 3b
       0.39088187 0.24391025 0.024645846 0.0048500844
000080 52 e3 f9 3d 16 ea 59 3e 22 c5 ea 3d da 5b d6 3d
       0.12201561 0.21280703 0.11463381 0.10466738
000090 0c 24 a9 3e 95 94 01 3e f9 1f 6c 3d a4 03 fa 3d
       0.33035314 0.12654336 0.05764768 0.12207726
0000a0 52 04 9f bd d7 0d dc 3d 0c 35 4d 3e 4e db 0c 3e
       -0.07764496 0.10744827 0.20039767 0.13755533
0000b0 79 80 ec 3d d5 8a 1e 3d e1 ba a2 3d a8 3d f7 bd
       0.11547942 0.03870662 0.079458006 -0.12072307
0000c0 d4 a5 f9 bc 23 a1 0f 3e f4 82 c0 3e ca 6e c9 3d
       -0.03047458 0.14026313 0.3759991 0.098355845
0000d0 70 22 a9 3e 00 c1 2b 3b 62 e6 d6 3d ce d4 19 bd
       0.33034086 0.0026207566 0.10493161 -0.037556462
0000e0 31 f8 eb 3d 96 06 99 3c 4f ae b7 3e 27 7e 17 be
       0.11521948 0.018679898 0.35875174 -0.14794217
0000f0 f2 d4 71 3e 2b b5 2e bc ee 9d 1f be f6 98 98 bd
       0.23616388 -0.010663311 -0.15587589 -0.0745105
000100 44 c8 c6 bc df cb e5 bd 33 a5 78 3e c2 d7 0b be
       -0.024265416 -0.11220526 0.24281769 -0.13656524
000110 97 7a d6 3e 04 ed b7 3d 13 05 fd 3d 00 83 b0 bc
       0.41890404 0.08980754 0.123544835 -0.02154684
000120 f8 1f 8b bd fe e9 6e bd 7b 1d 4f be 70 30 c4 3d
       -0.06793207 -0.05832862 -0.2022609 0.09579551
000130 14 63 cf bc 5b 7f b1 bd 53 7d 4f bb 8d aa 7f bd
       -0.025315799 -0.08666869 -0.0031660392 -0.06241851
000140 a9 75 cb bd f5 d5 38 bd 3f c7 80 bd 96 ed 36 3e
       -0.09934551 -0.04512592 -0.06288003 0.1786407
000150 77 7f 39 be 0e 41 05 be 80 96 04 3e e0 b9 3b 3e
       -0.1811503 -0.13013098 0.12948036 0.18332624
000160 72 36 2f 3d ac 34 92 bd e7 9e 68 be 5f 18 38 3e
       0.042776532 -0.071389526 -0.22716866 0.17978047
000170 ae 60 67 be 79 58 e8 bb 2f 38 f3 3d 15 94 0d 3e
       -0.22595474 -0.007090625 0.118759505 0.1382602
000180 19 69 b8 3d 9c e3 84 3d 52 ae 43 be fb 6b 2c 3e
       0.09004421 0.064887255 -0.19109467 0.16838066
000190 b4 70 c1 bd 47 c4 33 be c5 65 4d 3d 98 fc 86 3d
       -0.094453245 -0.17555343 0.050145883 0.06591147
0001a0 56 1a 8b 3d 8a 21 d8 bc ca 6a 37 be 5e 4d 33 3d
       0.067921326 -0.02638318 -0.1791183 0.043774955
0001b0 ea 69 b0 bd 49 73 30 be d9 28 eb 3d d0 76 5e bd
       -0.086139515 -0.17231478 0.114824004 -0.054312527
0001c0 67 f8 1f 3e fd ba 5f bd d2 90 18 be e7 60 11 3e
       0.15622102 -0.054621685 -0.14898995 0.14197122
0001d0 54 1a 95 bd e2 94 ef bd 7d c0 d9 3d 07 a3 96 bc
       -0.07280412 -0.11698319 0.10632417 -0.018388284
0001e0 2d 76 d8 bd 64 49 8a bc 2a 1f 83 be 32 8d 97 bc
       -0.10569415 -0.016880699 -0.25609714 -0.018499944
0001f0 ab 1e 7b be cf 66 b7 3c ad dd 95 3d c3 4d 42 3b
       -0.24523418 0.02238789 0.07317672 0.00296484
000200 62 c9 36 3e a7 a0 14 3e 01 ec aa bd 6e 1e ac 3c
       0.17850259 0.14514409 -0.083457954 0.021010604
000210 fa e1 0f be 83 b3 3d bc fd a6 ed 3c 27 40 2d 3d
       -0.14051047 -0.011578443 0.02901029 0.04229751
000220 14 5f d9 3d 1f 33 87 3d 6e 47 32 be 88 20 c7 3c
       0.10613838 0.066015474 -0.17410061 0.024307504
000230 96 dd 87 be 22 20 02 be 2d 6a 2d 3e 43 ec 92 3d
       -0.26536244 -0.1270757 0.16935034 0.071739696
000240 cf 65 17 be 96 b2 7b bd 04 02 ac 3e 5c 9b 88 3c
       -0.1478493 -0.06144961 0.33595288 0.016675644
000250 e1 e5 f4 3e 03 64 73 bc cc e7 a7 bb ec 78 c4 bd
       0.47831634 -0.014855388 -0.005124068 -0.095933765
000260 0a 03 28 be 83 c3 a4 3d fe 7c 87 3e a8 f8 f7 bc
       -0.1640741 0.080451034 0.2646255 -0.030269936
000270 d5 a9 e1 3e 4d 14 81 3e ae ab 18 be 0b cd 15 bd
       0.44074884 0.252108 -0.1490924 -0.036572497
000280 c1 b9 1f bd 17 a2 84 bd 2d c2 91 3e 6f 3a 87 3d
       -0.038995508 -0.06476229 0.28468457 0.06602942
000290 17 a0 d1 3e cc 4d 35 3e 13 25 3e be d9 20 55 3d
       0.4094245 0.17705458 -0.1856883 0.05203328
0002a0 47 ce 34 3e 37 5f 24 3d 31 60 e1 3e 30 63 0c 3e
       0.17656814 0.040129866 0.440187 0.13709712
0002b0 22 77 b9 3e 2e b3 92 3d 52 e9 0f 3e 71 a9 0a bb
       0.36223704 0.07163082 0.14053848 -0.0021158124
0002c0 16 7a 0a bd 5a 8b 4f 3e 13 9b a1 3e 76 51 b0 bd
       -0.033807836 0.20268002 0.31563625 -0.086092874
0002d0 5b 37 8b 3e 20 f9 49 3e 6e 03 64 bd eb 7e 77 bd
       0.2719067 0.1972394 -0.055667333 -0.060423773
0002e0 82 e6 b5 bc 55 50 3d 3e 93 1c d6 3e 73 02 bb bd
       -0.022204641 0.18487675 0.41818675 -0.091313265
0002f0 e7 67 89 3e 1f 02 32 3e ce e7 dc 3d 84 c2 19 be
       0.26837084 0.17383622 0.10786401 -0.15015608
000300 3c 3d a0 3d 0f be da 3d a2 ea c8 3e 4c e8 47 bc
       0.078241795 0.10680782 0.3924151 -0.01220138
000310 c0 ca 2b 3e bb 57 5f 3e 76 ca 11 be 31 bc 48 3b
       0.16776562 0.2181081 -0.14237389 0.003062975
000320 74 6a 33 3e 66 76 a8 3d 8b 82 db 3e 25 8a 93 bd
       0.17521077 0.08225708 0.42873034 -0.07204083
000330 aa 29 82 3e d6 2e 04 3e de 17 24 bd 75 3d 3c 3e
       0.25422412 0.12908491 -0.040061824 0.18382819
000340 2f 55 12 3e a6 84 96 bd 54 8e b6 3e cc 49 07 bd
       0.14290307 -0.073495194 0.35655463 -0.033029363
000350 62 e8 90 3e a8 79 28 3e 3f 53 4b bd 64 fd 0f 3e
       0.28302294 0.16452658 -0.049639937 0.14061505
000360 65 de 3c 3e 5e 92 97 bb e9 57 be 3e 76 03 4c 3c
       0.18444212 -0.0046256026 0.37176445 0.012451997
000370 e3 44 55 3e e5 c1 84 3e a6 75 e9 3c 60 b2 34 3e
       0.2082706 0.2592918 0.028498482 0.1764617
000380 9e e2 13 be 09 5d 27 3e 5a 39 c4 3e 39 1c 05 be
       -0.14441916 0.16344084 0.38325006 -0.12999047
000390 e4 a6 f6 3e 3c d7 24 3d 73 25 7d bc 91 e7 8f 3d
       0.48174202 0.040244326 -0.015450823 0.0702659
0003a0 78 ba b7 3d b6 fe ac 3d 9e 9b 87 3e 9b 8c 05 be
       0.08971113 0.0844702 0.26485914 -0.13041918
0003b0 02 ab b7 3e 41 50 05 bd 02 03 3b be 2c 5e 59 3c
       0.35872656 -0.03254724 -0.18262866 0.013267081
0003c0 14 f6 0a be 09 db 19 bd ba 76 7d 3e dc 62 35 bd
       -0.13570434 -0.037562404 0.24752322 -0.044283733
0003d0 1e 80 c7 3e ee 2b 8f 3e b4 1c c6 bd d7 dc 6f bb
       0.38964933 0.27963203 -0.096734434 -0.0036600137
0003e0 0c 61 18 3e f3 f0 b9 3d 02 3e a6 3e 58 16 1d be
       0.1488077 0.090791605 0.32469183 -0.15340555
0003f0 c4 f0 a2 3e a7 fb 41 3e cb bf 0d 3d 4d 1c b1 3d
       0.31824315 0.18943654 0.034606736 0.08647976

arith.constant2 f4 [1, 16]
000000 c4 eb 23 3f 36 d8 12 bf 4a 95 4b 3f eb d9 1d 3f
       0.64031625 -0.5736116 0.7952467 0.6166064
000010 cd 5e 6f 3e 9a 6e c4 3e d2 62 ff be c5 38 35 3f
       0.23376007 0.38365632 -0.4988008 0.7078975
000020 51 6c 20 3f d0 3c 25 3f c7 70 64 3f 2a d3 6c 3f
       0.6266528 0.6454592 0.89234585 0.9250971
000030 ab e7 52 be cf 15 ca bd 74 dd 06 bf d8 c8 1d 3f
       -0.20596187 -0.09867441 -0.5268166 0.6163459

sequential_2_1/conv2d_4_1/convolution f4 [8, 3, 3, 3]
000000 df a6 ec bd 90 36 2e 3d 83 49 da bd 46 4a 67 3e
       -0.11555266 0.042532504 -0.106585525 0.22586927
000010 51 b9 76 bc e2 eb 00 bc 5b a9 57 3e 6a 36 9c 3e
       -0.015058831 -0.007868739 0.21060698 0.30510265
000020 1d bb 08 3c 6e b7 16 3e 32 7a 9e 3d bf 0b 26 3d
       0.0083453925 0.1471841 0.07738151 0.040538546
000030 26 72 41 be 60 40 51 3e 67 f9 37 3e 6c 0f 03 be
       -0.188912 0.20434713 0.17966233 -0.12798852
000040 f7 a2 6b 3e 73 9d dc bb 0d 20 89 3d 98 06 08 bd
       0.23011385 -0.0067326366 0.06695566 -0.033209413
000050 bf 65 55 3e 77 3b 60 3e b6 43 4f bd 8b 43 37 3c
       0.20839594 0.21897684 -0.050601684 0.011185537
000060 1a 6a 48 be c2 20 eb 3d 42 ee 1c 3e 40 29 62 be
       -0.19571725 0.114808574 0.15325263 -0.22086048
000070 35 61 6a 3a f1 d2 11 3e 40 92 34 bd 7e ee a3 be
       0.00089408766 0.14240624 -0.044084787 -0.32017893
000080 a2 ed a0 bd 4a af 7a 3e 30 57 30 3e f0 5a 3b 3d
       -0.07857825 0.2448093 0.1722076 0.04574102
000090 4d fe 49 be e6 eb a5 be dd 83 1f be bf b7 df 3b
       -0.19725914 -0.3240654 -0.15577646 0.006827324
0000a0 22 00 93 be 14 12 ca bd d7 16 bf bd 4a 60 11 3e
       -0.2871104 -0.098667294 -0.09330528 0.14196888
0000b0 9f 54 17 3e 80 e4 60 3e 0f ce 3e 3e 6c bd 65 3e
       0.14778374 0.21962166 0.18633293 0.2243554
0000c0 67 ac b4 bd 09 02 0a 3e c2 e8 ca bd ff f8 18 3e
       -0.08821946 0.13477339 -0.09907676 0.14938734
0000d0 f1 17 91 3d ba 95 04 bd 31 ad e4 3c 39 0e ec 3d
       0.070846446 -0.032369353 0.027914615 0.1152615
0000e0 fc fc 90 3e 3b 1c 4d be 25 5b 54 3c b0 d1 05 3d
       0.28318012 -0.200303 0.012961184 0.032670677
0000f0 30 12 b7 be ab 10 c6 be 8a 78 01 be 51 d4 8a bd
       -0.35756063 -0.38684592 -0.12643638 -0.067787774
000100 f0 e9 f3 bd 80 2f a1 bc 12 b0 d4 3d 6b 42 33 3e
       -0.119098544 -0.01967597 0.10385145 0.17505805
000110 ff af 85 3e 82 6f 10 be 4c 0f c7 3d 03 90 9c 3c
       0.26110837 -0.14105037 0.097197145 0.019111639
000120 f5 3d 05 be 86 da 1a 3e 26 51 9c 3d d8 f3 2a 3e
       -0.13011916 0.15122423 0.07632665 0.16694582
000130 7c 5f 52 bd 16 f6 00 3c c0 13 a4 bd 3e 84 f2 bd
       -0.051360592 0.007871171 -0.080115795 -0.118416294
000140 35 7e 9d bc 48 6e 32 3e c9 5d d7 bd aa f1 40 bd
       -0.01922522 0.17424881 -0.10515935 -0.04710547
000150 1f 2f 85 3e 87 47 a5 3e 7f 1b a8 bd e7 94 81 3e
       0.26012513 0.32281134 -0.082083695 0.25308916
000160 57 cd 2d 3e f4 72 10 3d 19 ff 7b 3c e2 c8 d4 3d
       0.16972862 0.035265878 0.015380644 0.10389878
000170 f2 ec 1d be 7f 46 25 3a 81 f2 a7 3e 67 4e d6 3d
       -0.15422419 0.0006304755 0.32802203 0.10464173
000180 db 45 1d 3e 1d 75 c5 3b 92 01 f7 3d 27 0a a9 3d
       0.15358679 0.006025924 0.120608464 0.082538895
000190 dd d9 cc bc ed 5c 29 3d b5 a5 30 be d7 58 85 bd
       -0.025006229 0.041348387 -0.17250712 -0.065110855
0001a0 af c4 27 3e 4a 54 96 3c 72 c5 97 3e 78 81 6a 3c
       0.16383623 0.018350739 0.29642826 0.014313094
0001b0 ab b7 02 3e 5a 9c c0 bc c3 d9 d4 bd 13 6f 0a 3e
       0.12765376 -0.023512054 -0.10393097 0.13518934
0001c0 cd 0a b4 3d 4f 06 ff 3d 1c 1b 43 be b6 6f bc bd
       0.087911226 0.12452375 -0.1905331 -0.09200995
0001d0 13 f8 f5 3d b1 48 03 be e9 c3 9a 3d e8 f6 ca bd
       0.12010207 -0.12820698 0.07556898 -0.09910375
0001e0 65 ec 1e be 2e 83 dc bd 85 94 76 3e c1 de 4f 3d
       -0.15519865 -0.10767208 0.24080093 0.050749544
0001f0 71 d3 c1 be 6e d0 b5 bd 3d fb 1d 3e ab d1 04 3e
       -0.3785663 -0.088776454 0.15427871 0.12970607
000200 1c f6 87 bd 46 8d a3 3d 52 bf 30 be 03 cd 32 3e
       -0.066387385 0.0798593 -0.17260483 0.17461018
000210 95 61 44 be f6 09 95 3d d6 b1 62 bd 49 26 40 3e
       -0.1917785 0.072772905 -0.05534538 0.18764605
000220 ec 4a b4 be ca e7 9e bd 18 f8 56 be b0 41 cc bd
       -0.3521341 -0.07759054 -0.20993078 -0.099734664
000230 33 3b 70 3e 8d 68 63 3d 3e 71 84 be 0e 38 b7 bc
       0.23460083 0.05551963 -0.25867647 -0.022365596
000240 9f 12 5a 3e a6 0a 9b be d2 b4 5b 3d ac b2 78 3e
       0.21296166 -0.30281562 0.05363924 0.24286908
000250 92 81 2b 3e d0 34 e3 3b e7 82 78 3d 79 59 44 3e
       0.16748646 0.006933786 0.060671713 0.19174756
000260 15 b0 6c 3e 49 8b 1d 3d 92 2f 87 3d 53 fe 6b be
       0.23114045 0.03846291 0.0660087 -0.23046236
000270 10 28 75 be 6d f0 4d bd 23 77 ad 3d 42 05 6a 3d
       -0.23941064 -0.050278116 0.08469989 0.05713392
000280 bc b7 d5 bd bd 7d b2 bc a6 cf a7 bb 4f 5f 92 3e
       -0.10435435 -0.021788472 -0.005121189 0.2858834
000290 9b 08 d7 bc 6b 13 37 3d e5 b4 c6 bd 2e 54 24 3e
       -0.02624922 0.044696253 -0.09702472 0.16047737
0002a0 e8 f5 4c 3e 34 ba 80 3d 03 a5 25 be f1 d7 9e ba
       0.20015681 0.062855154 -0.16176228 -0.0012118799
0002b0 f9 21 71 3e f4 81 5a be 14 5b ab 3d 16 ed 88 3d
       0.23548116 -0.21338636 0.08366981 0.066858456
0002c0 9a 76 5d 3e 57 a7 20 3d 82 0c 92 3e f2 5d a2 3c
       0.21627274 0.039222088 0.28525168 0.019820187
0002d0 61 80 58 3d 29 d6 0c be 55 34 ed 3c 83 1c cd bd
       0.052856807 -0.1375357 0.028955618 -0.10015204
0002e0 db 54 a0 3e d7 08 2e be 4b 20 19 3e fc 44 fa 3d
       0.3131474 -0.1699556 0.14953725 0.12220189
0002f0 bf 6a 24 3e f8 c8 83 3e 5d c6 a1 bd 35 71 b8 bc
       0.16056345 0.25739264 -0.07899163 -0.022514919
000300 61 47 b6 bd 4c 0d 5a 3e a7 cc 80 3e 10 e4 3b 3e
       -0.08900333 0.21294135 0.25156137 0.18348718
000310 b3 71 51 bd e9 b8 ab 3d 25 5a a2 3d c3 11 18 3d
       -0.051133823 0.08384878 0.0792735 0.037126314
000320 d3 0b c1 3d 7f 76 6c 3e eb 7e a4 3e 8b 84 04 be
       0.094260834 0.23092078 0.3212808 -0.12941186
000330 a3 d5 0e 3e 86 b7 b4 bd 22 e1 72 3e 79 18 95 bd
       0.13948683 -0.08824067 0.23718694 -0.072800584
000340 85 37 52 3d 6b 9a 22 3e 0d 1d 9c bd aa 5c cd bb
       0.05132248 0.15879218 -0.076227285 -0.00626715
000350 50 9c 2b 3e c4 fa 1e be cd 52 a0 3e 37 80 d0 3d
       0.16758847 -0.15525347 0.31313172 0.10180705

sequential_2_1/conv2d_4_1/Relu;sequential_2_1/conv2d_4_1/add;sequential_2_1/conv2d_4_1/convolution; f4 [8]
000000 89 a1 f7 bd 7d d5 08 3e fa 83 49 3e 64 1a 9e bd
       -0.12091357 0.1336269 0.19679251 -0.07719877
000010 7c 1c 56 3e 1c f6 33 3e f6 58 cd bd 7a 42 ac bd
       0.20909303 0.17574352 -0.100267336 -0.08411117
